Show/Python/best_model.pth (torch, 181410 bytes, 10 tensors)

conv1.weight f4 [6, 1, 5, 5]
0	0xbcb2e2d0	-0.021836668
1	0x3dabd735	0.08390657
2	0x3e9b6a0b	0.30354342
3	0x3e30b85c	0.17257828
4	0x3e3e8c91	0.1860831
5	0xbe12b061	-0.14325096
6	0xbd60c0f5	-0.05487152
7	0xbe0bef2e	-0.13665459
8	0xbd9fc841	-0.07801867
9	0xbdd7ebef	-0.10543048
10	0x3b7befed	0.0038442567
11	0xbeb2b43d	-0.34903136
12	0xbeca8252	-0.39552552
13	0xbea35498	-0.31900477
14	0xbe3cf56f	-0.18453
15	0x3e515a9f	0.20444725
16	0xbe075aff	-0.13218306
17	0xbe8289f0	-0.25495863
18	0xbdb1f0b6	-0.0868849
19	0x3d8a8991	0.0676452
20	0x3b9dd164	0.004816221
21	0x3e87d235	0.26527563
22	0x3ea7e2d5	0.32790247
23	0x3e770012	0.2412112
24	0xbc40d601	-0.0117697725
25	0xbd4e2f0c	-0.050337836
26	0x3d11a1e1	0.03555477
27	0x3e582bf4	0.21110517
28	0x3d6a08de	0.057137363
29	0x3e065814	0.13119537
30	0xbe9b31ca	-0.30311424
31	0xbe44cf6c	-0.1921975
32	0x3d84acac	0.06478247
33	0x3e3b9d58	0.1832174
34	0x3de7b1c7	0.11313205
35	0xbf0547b4	-0.52062535
36	0xbf00a365	-0.5024932
37	0xbc673285	-0.014111166
38	0x3e47e039	0.19519128
39	0x3e4114ae	0.18855545
40	0x3e069f61	0.13146736
41	0xbf8de70c	-1.1086135
42	0xbec2eb9b	-0.38070378
43	0xbd69823d	-0.05700897
44	0x3e3419b8	0.17587936
45	0x3e5708e0	0.2099948
46	0xbdc877aa	-0.09788449
47	0xbe9d978b	-0.3077968
48	0xbe7de8d7	-0.24795853
49	0xbd034fcb	-0.03205852
50	0xbc540988	-0.012941726
51	0x3cca45d1	0.024691494
52	0x3d125e3b	0.035734396
53	0x3a4ffe5a	0.00079343247
54	0xbc1114b4	-0.008855034
55	0x3c0575ae	0.008145733
56	0x3dd629b6	0.104571745
57	0xbd86043d	-0.06543777
58	0xbd0e0ca1	-0.034680013
59	0x3cc8dc6d	0.02451917
60	0x3f0be5ca	0.54647505
61	0xbe827322	-0.25478464
62	0xbe6dabee	-0.23210117
63	0xbd83e68c	-0.06440458
64	0x3d230fb0	0.039809883
65	0x3e5966a5	0.21230562
66	0xbf0b871d	-0.5450304
67	0xbedcbb35	-0.43111578
68	0x3d2929fd	0.04129981
69	0x3e97f7cf	0.2968125
70	0xbd69aec1	-0.057051424
71	0xbe11ef08	-0.1425134
72	0x3c099754	0.008397896
73	0x3ee1d214	0.4410559
74	0xbdbd69bd	-0.092486836
75	0x3e5dc50d	0.216572
76	0x3e33f7e3	0.1757503
77	0x3d3d5c47	0.04623058
78	0x3d02005c	0.031738624
79	0x3e47c469	0.19508518
80	0xbdee476c	-0.116347164
81	0xbda434ed	-0.08017907
82	0x3e70604c	0.23474234
83	0x3e815238	0.2525804
84	0x3e03dbb8	0.12876785
85	0x3dd6fbf3	0.10497274
86	0x3dc79b4c	0.097464174
87	0x3d8565cc	0.06513557
88	0x3b5dd597	0.0033849233
89	0x3d0e96e1	0.034811858
90	0xbd227ab6	-0.039667808
91	0xbd334b9c	-0.04377328
92	0xbdfbece6	-0.12301044
93	0xbe5d9b33	-0.21641235
94	0xbe13e3d9	-0.14442386
95	0xbd7767ee	-0.06040185
96	0xbd8819da	-0.06645556
97	0xbe48178a	-0.1954023
98	0xbe177c37	-0.14793478
99	0xbd8c73fb	-0.06858059
100	0x3caae074	0.02085898
101	0x3d8a1495	0.06742207
102	0x3d98f4f7	0.07468598
103	0x3e0d271f	0.13784455
104	0xbdb9d2c3	-0.09073403
105	0x3dc635db	0.09678241
106	0x3e2fd301	0.17170335
107	0x3e2eea83	0.17081647
108	0xbcf3dd8c	-0.029768728
109	0xbecb68f1	-0.397285
110	0x3dda0739	0.10645909
111	0x3d6ac899	0.05732021
112	0x3d30cf01	0.043166164
113	0xbf155cb0	-0.58344555
114	0xbf025cd8	-0.5092292
115	0xbe4c64aa	-0.19960275
116	0xbe160b73	-0.14652805
117	0xbfa5e223	-1.2959636
118	0xbf1d074d	-0.61339265
119	0xbd5c6065	-0.053802866
120	0xbf40e858	-0.7535453
121	0xbf459860	-0.7718563
122	0xbe33c81f	-0.17556809
123	0x3e8b3c6f	0.27194545
124	0x3e91aef0	0.2845378
125	0x3cc58c71	0.02411482
126	0x3d1f9cc1	0.03896785
127	0x3e00a90c	0.12564486
128	0x3dad223f	0.084537975
129	0x3bf99304	0.0076164026
130	0x3c9867ab	0.01860412
131	0x3ddc990c	0.10771379
132	0x3da41b8c	0.08013067
133	0x3cb186c3	0.021670705
134	0x3b461bf3	0.0030229061
135	0xbcfe9c70	-0.031080455
136	0x3d1fb94d	0.038995076
137	0x3dc910f2	0.09817685
138	0x3cf33b4d	0.029691363
139	0xbd6f4eef	-0.058424886
140	0xba968108	-0.0011482546
141	0x3bd985a3	0.006638245
142	0x3d768472	0.060184903
143	0x3dbe99df	0.09306692
144	0xbd6d3aed	-0.057917524
145	0x3e2b1fcf	0.16711353
146	0x3d51564e	0.051107697
147	0x3d675109	0.056473766
148	0x3d7bee38	0.06150648
149	0x3e32e095	0.17468484

conv1.bias f4 [6]
0	0xbd4551ce	-0.04817372
1	0x3d189770	0.037253797
2	0xbd32f027	-0.04368606
3	0xbc2bf3ed	-0.010495168
4	0x3e2216fb	0.15829079
5	0x3aa7d811	0.0012805482

conv2.weight f4 [16, 6, 5, 5]
0	0x3b7dfc03	0.0038754947
1	0x3e1253ac	0.14289731
2	0xbcd72096	-0.026260655
3	0x3cdc573b	0.026897063
4	0xbe023f63	-0.12719493
5	0xbe4cd1c7	-0.20001899
6	0xbecb341c	-0.39688194
7	0xbe1cf6c2	-0.15328506
8	0xbe3bc2f0	-0.18336082
9	0xbe4d475f	-0.20046757
10	0xbe9374ee	-0.28800148
11	0xbf0f90af	-0.56080145
12	0xbd7b4c23	-0.061351907
13	0x3e0fbd6f	0.14037107
14	0xbf244e1e	-0.641817
15	0xbeaebb40	-0.34127235
16	0xbf3e5832	-0.74353325
17	0xbef8e1e0	-0.4860983
18	0x3d619493	0.055073332
19	0x3d8f4861	0.06996227
20	0xbdec84f9	-0.115488
21	0xbec0c77a	-0.3765219
22	0xbf0eb40f	-0.557435
23	0xbce6490d	-0.028111005
24	0x3ea70b11	0.3262563
25	0xbe536841	-0.20645238
26	0x3d9f4883	0.077775024
27	0x3d977397	0.07395094
28	0xbcc85e0e	-0.024458911
29	0xbbf1e019	-0.007381451
30	0x3dc1b782	0.094588295
31	0x3d32f178	0.043687314
32	0x3e69a6ed	0.22817583
33	0x3e07d621	0.13265277
34	0x3e8a92d6	0.27065152
35	0x3cb5c7ae	0.022189941
36	0xbc54f981	-0.0129989395
37	0x3e5e69c2	0.21720031
38	0xbe886279	-0.2663763
39	0x3ef24841	0.4732075
40	0x3d609f27	0.05483928
41	0x3d867c3c	0.065666646
42	0x3ee2da63	0.4430724
43	0x3ef016d5	0.4689242
44	0xbddf9768	-0.1091755
45	0xbcbc0f7e	-0.022956606
46	0x3d70586b	0.058678072
47	0x3ebfcc14	0.37460387
48	0x3ec3898d	0.3819088
49	0x3e31cdd6	0.17363676
50	0xbdf6dd15	-0.12053887
51	0xbe57ed6f	-0.21086667
52	0xbee07275	-0.43837324
53	0xbe206085	-0.1566182
54	0x3e7534c5	0.23945911
55	0x3e114ea0	0.1419015
56	0x3d13024d	0.035890866
57	0xbaad0fbf	-0.0013203545
58	0xbe76afd2	-0.24090508
59	0xbd0ff59b	-0.035146337
60	0x3e2704f3	0.16310482
61	0x3df7ac54	0.12093416
62	0x3db244fa	0.087045625
63	0xbd883aac	-0.06651816
64	0xbe4cdd85	-0.20006378
65	0x3e172ab1	0.14762379
66	0x3e5a0664	0.212915
67	0x3dec35fa	0.11533733
68	0x3d8378da	0.06419535
69	0xbd540d4f	-0.051770505
70	0x3e1ccb14	0.15311843
71	0x3e6a1f18	0.22863424
72	0x3e6e8d6e	0.23296139
73	0x3d8cf77d	0.06883142
74	0xbd53f6b9	-0.051748965
75	0x3e7f4a85	0.2493077
76	0xbe73a6a3	-0.23794036
77	0xbf2bee20	-0.67160225
78	0xbf9f2170	-1.2432079
79	0xbf8fbd5b	-1.1229662
80	0x3e393de4	0.18090016
81	0xbe2d63d1	-0.16932608
82	0xbd807dc8	-0.06273991
83	0xbe3bff99	-0.18359222
84	0xbed6fda2	-0.4199038
85	0xbab979e8	-0.0014150711
86	0xbd4f0778	-0.050544232
87	0xbdc974bc	-0.098367184
88	0xbe906502	-0.28202063
89	0xbef644b2	-0.48099285
90	0x3e130e82	0.14361003
91	0x3e0c3148	0.13690674
92	0x3dc9321c	0.09824011
93	0xbe20a0d8	-0.15686357
94	0xbf3c0f70	-0.73461056
95	0x3d56e6bf	0.05246615
96	0x3d836f14	0.06417671
97	0xbd68dc1d	-0.05685054
98	0xbe103024	-0.14080864
99	0xbec85547	-0.3912756
100	0xbe378abd	-0.17924018
101	0xbd920469	-0.071297474
102	0x3b55fe5b	0.0032652828
103	0xbd5b87d9	-0.05359635
104	0xbe16c84f	-0.14724849
105	0x3c534084	0.0128938
106	0x3ce34598	0.027743146
107	0xbd9fb8c9	-0.07798917
108	0x3d92c1e0	0.07165885
109	0xbd98809a	-0.07446404
110	0xbe26d88d	-0.16293545
111	0xbe10f925	-0.14157541
112	0x3cad299a	0.021138001
113	0x3e375c5d	0.17906328
114	0x3d92fa5f	0.07176661
115	0xbc44dab6	-0.012015035
116	0xbec8720a	-0.39149505
117	0xbe910b52	-0.2832895
118	0x3d05fb76	0.032710515
119	0xbbd7fefb	-0.0065916753
120	0x3c3ef703	0.011655572
121	0xbddc8afe	-0.10768698
122	0xbed9664c	-0.4246086
123	0xbecf6dd9	-0.40513495
124	0xbe9aae46	-0.30211085
125	0x3e104543	0.14088921
126	0x3d58edb3	0.052961063
127	0xbd8ed1d7	-0.069736175
128	0xbe79b820	-0.24386644
129	0xbf132af2	-0.57487404
130	0x3e91970c	0.28435552
131	0x3ea02088	0.3127482
132	0x3e41e239	0.18933953
133	0xbc5a45e2	-0.013322325
134	0xbea79a69	-0.32734993
135	0x3dd0a402	0.10187532
136	0x3e8056ae	0.2506613
137	0x3ddf24b3	0.10895672
138	0x3d080bed	0.0332145
139	0xbee61dcd	-0.4494461
140	0xbd0b9fca	-0.034087934
141	0x3e9561a2	0.2917605
142	0x3e82e473	0.25564918
143	0x3cc80378	0.024415717
144	0xbe87d5ea	-0.2653039
145	0xbe65ed0f	-0.22453712
146	0x3d5ad64f	0.053427037
147	0x3e15ad97	0.14617
148	0x3e815303	0.25258645
149	0xbdded0a9	-0.108796425
150	0xbe3ba43d	-0.1832437
151	0xbe055ef3	-0.13024502
152	0xbdb9f817	-0.090805225
153	0xbe31a6ed	-0.17348833
154	0x3d94334a	0.07236345
155	0xbf1e6e7e	-0.6188735
156	0xbf08393e	-0.53212345
157	0x3d6813ea	0.056659617
158	0x3e2a50eb	0.1663243
159	0x3d96feba	0.07372804
160	0xbd0cfaa7	-0.03441873
161	0xbe823d2f	-0.25437304
162	0xbee140b6	-0.43994683
163	0x3e2f8516	0.17140612
164	0x3f04fe8d	0.51950914
165	0x3e466757	0.19375359
166	0x3e3b3717	0.18282734
167	0x3d87d331	0.066320784
168	0xbe9c3f46	-0.30517024
169	0xbc5342cd	-0.0128943445
170	0x3c5442d7	0.012955389
171	0x3e7f51d0	0.24933553
172	0x3e4eefc0	0.20208645
173	0x3d432b74	0.047648862
174	0xbe917236	-0.2840745
175	0xbe770992	-0.24124745
176	0x3d98a84b	0.07453974
177	0xbedc1db9	-0.42991427
178	0xbf00db70	-0.50334835
179	0xbe5635ea	-0.20919004
180	0x3dd85958	0.10563916
181	0x3e6b0a7a	0.22953215
182	0x3c2c2e9f	0.010509162
183	0xbe6df322	-0.23237279
184	0xbe043f81	-0.1291485
185	0x3ea0c6dd	0.3140172
186	0x3e76ef3e	0.24114701
187	0x3e66219d	0.2247376
188	0x3d804af8	0.06264299
189	0xbe90ead6	-0.28304166
190	0x3e74829a	0.23877946
191	0xbe18b2ba	-0.14911929
192	0x3ccc74c8	0.02495803
193	0x3e1925fb	0.14955895
194	0x3e1461af	0.14490388
195	0xbdd58daa	-0.10427411
196	0xbee2bda5	-0.44285312
197	0xbedb674e	-0.42852253
198	0xbecfeab0	-0.4060874
199	0xbe8c07e3	-0.27349767
200	0xbe9aec30	-0.30258322
201	0x3e0ae797	0.13564907
202	0x3eeed880	0.4664955
203	0x3eb4ea7e	0.35335153
204	0x3da1ed2f	0.07906567
205	0xbe42c91e	-0.19022033
206	0xbe934474	-0.28763163
207	0xbe5cbe22	-0.21556905
208	0x3e3af51c	0.18257564
209	0x3eb445b9	0.35209444
210	0xbe49388b	-0.19650476
211	0xbe939677	-0.28825733
212	0xbeee474d	-0.46538773
213	0xbefe423d	-0.4965991
214	0xbe33787a	-0.17526427
215	0xbe3ff20c	-0.18744677
216	0xbd42901c	-0.047500715
217	0x3e465165	0.19366987
218	0xbc92a6d7	-0.017901821
219	0xbde0d234	-0.10977593
220	0xbd8b0f61	-0.06790043
221	0x3c9d106a	0.019172866
222	0x3e02d61a	0.12776986
223	0x3e946c52	0.28988892
224	0x3e77f3b4	0.24214059
225	0xbe461d73	-0.19347171
226	0xbece1780	-0.40252304
227	0x3d44c0ce	0.048035435
228	0x3e7cc038	0.246827
229	0x3dd8a725	0.10578755
230	0x3e9ffcd5	0.31247583
231	0xbe71d694	-0.23617011
232	0xbf0287ca	-0.5098845
233	0xbec4b681	-0.3842049
234	0x3c3e72dc	0.011624064
235	0x3e928b6a	0.2862199
236	0x3e3ec9c4	0.18631655
237	0xbe1de3c5	-0.15418918
238	0xbeacf4eb	-0.33780608
239	0xbd8ae40f	-0.0678178
240	0x3e5c090e	0.21487829
241	0x3e42b919	0.19015922
242	0x3e3ad63f	0.18245791
243	0x3ea69a5c	0.32539642
244	0x3e141cb1	0.1446407
245	0xbe5f6c5d	-0.21818681
246	0x3e115b6c	0.14195031
247	0x3d2864c2	0.041111715
248	0x3c88e545	0.016710887
249	0x3eae2e68	0.3401978
250	0xbead54f0	-0.33853865
251	0x3dd6c8a8	0.10487491
252	0x3eae67f8	0.34063697
253	0x3e8f2be5	0.27963176
254	0x3dce8183	0.10083296
255	0xbea7c296	-0.32765645

conv2.bias f4 [16]
0	0x3e7c7584	0.24654204
1	0x3e6d0f8b	0.2315046
2	0x3d942e3e	0.072353825
3	0x3dd76aa1	0.10518385
4	0xbe8d1e3c	-0.2756213
5	0xbed204cf	-0.41019294
6	0xbe26879a	-0.16262665
7	0xbdbb8917	-0.09157007
8	0x3d2c661c	0.042089567
9	0xbe5eeae4	-0.21769291
10	0xbdea300a	-0.11434944
11	0xbe8aec92	-0.27133614
12	0x3ea4d44f	0.3219323
13	0xbe3e8eb6	-0.18609127
14	0xbf37b190	-0.71755314
15	0xbe82f1a9	-0.25574997

fc1.weight f4 [120, 256]
0	0xbd8397ac	-0.064254135
1	0xbe4529da	-0.19254246
2	0xbee35c33	-0.4440628
3	0xbed19684	-0.40935147
4	0x3b861cd8	0.004092794
5	0x3dbef95c	0.09324905
6	0xbc67d7cd	-0.014150572
7	0x3d57f141	0.052720312
8	0x3e09baef	0.13450216
9	0x3d51ac72	0.051189847
10	0x3e08221d	0.13294263
11	0x3eca9e34	0.39573824
12	0x3acd621e	0.00156695
13	0x3eab9722	0.33513743
14	0x3e97d82c	0.29657114
15	0x3ecddbbe	0.40206712
16	0xbe55c569	-0.20876087
17	0xbdb629be	-0.088946804
18	0xbe1e93a6	-0.15486011
19	0xbd2aa603	-0.041662227
20	0xbdf703d1	-0.12061275
21	0xbd106527	-0.035252716
22	0xbe03a375	-0.12855323
23	0xbd9bc385	-0.07605652
24	0xbeb1b63e	-0.34709352
25	0xbe0d130d	-0.13776799
26	0xbafa9ee8	-0.0019120844
27	0x3d18bcd5	0.03728946
28	0xbe905942	-0.28193098
29	0xbc9122f5	-0.017716864
30	0x3da11919	0.07866115
31	0x3e621658	0.22078836
32	0x3aaed965	0.0013339935
33	0xbea05519	-0.31314924
34	0xbede50ee	-0.4342112
35	0xbdc65ec7	-0.09686046
36	0x3dbf055d	0.09327195
37	0xbe2584b2	-0.161639
38	0xbe0417f9	-0.1289977
39	0x3e189edf	0.14904355
40	0x3e799f9d	0.24377294
41	0xbd93be20	-0.07213998
42	0xbe263d30	-0.16234279
43	0x3bf75531	0.0075479974
44	0x3e7d68dd	0.24747033
45	0x3e563b75	0.20921119
46	0x3e3e1855	0.1856397
47	0xbdc5dece	-0.09661637
48	0xbf5ab729	-0.8543573
49	0xbdf32901	-0.11873055
50	0xbd9cb9aa	-0.076526
51	0xbe0ed1d9	-0.13947238
52	0xbf0fbb30	-0.56145
53	0xbdc1f9d2	-0.094714776
54	0xbd6bcd03	-0.05756856
55	0xbe63bb11	-0.22239329
56	0xbeb4c198	-0.3530395
57	0xbddc1414	-0.10746017
58	0xbdc22e50	-0.0948149
59	0xbeadd8a6	-0.33954352
60	0xbf082c2a	-0.5319239
61	0xbed67ed0	-0.41893625
62	0xbe551524	-0.20808846
63	0xbe83657c	-0.25663364
64	0x3e07ce93	0.13262396
65	0x3efe6b81	0.49691394
66	0x3e490387	0.19630252
67	0xbc3c9f0a	-0.011512527
68	0xbea4831c	-0.3213128
69	0xbdc0bb7a	-0.09410758
70	0x3df55561	0.11979175
71	0x3e987a2e	0.29780716
72	0xbe90d699	-0.28288725
73	0xbe8e92cf	-0.2784638
74	0xbddb21aa	-0.1069978
75	0x3e59742a	0.2123572
76	0xbe6ee4b4	-0.23329431
77	0xbea5b3a9	-0.32363632
78	0xbe861e25	-0.26194873
79	0x3ee9b9a9	0.4564946
80	0xbe79abe6	-0.2438198
81	0xbdefb902	-0.11705209
82	0x3d58f482	0.052967556
83	0xbe4c3cc7	-0.1994506
84	0xbe92850d	-0.28617135
85	0x3d131e1b	0.035917383
86	0x3e18e97e	0.1493282
87	0xbd6a69d5	-0.057229836
88	0xbe881ecf	-0.26586005
89	0x3c1b8f58	0.009494625
90	0x3d42dfe5	0.047576804
91	0xbd38f110	-0.04515177
92	0x3cee9253	0.029122507
93	0xbd550fc3	-0.052016985
94	0x3cb25a45	0.02177156
95	0xbba46be8	-0.0050177462
96	0x3eb75aa9	0.35811356
97	0x3e9799b4	0.29609454
98	0x3e1a6089	0.15075888
99	0x3e4d339e	0.20039222
100	0x3d9f9f6b	0.077940784
101	0x3e4f4e18	0.20244634
102	0x3e98f5cd	0.2987503
103	0x3ea04f79	0.31310633
104	0xbecdbe90	-0.4018445
105	0x3e11efb1	0.14251591
106	0x3e8b56b4	0.27214587
107	0x3e788129	0.2426802
108	0xbce633b5	-0.028100828
109	0x3e07b66f	0.13253187
110	0x3d8b783b	0.068100415
111	0x3d43c333	0.04779358
112	0xbced67a9	-0.028980093
113	0xbc6be210	-0.014397159
114	0x3d2a3594	0.041555002
115	0x3cc381d4	0.023865618
116	0xbd74074e	-0.05957728
117	0xbbeb8b08	-0.0071882047
118	0xbd22ffdf	-0.0397948
119	0xbd21c640	-0.039495707
120	0x3d4181c2	0.047242887
121	0x3ca13105	0.019676695
122	0x3c82c033	0.015960788
123	0x3b618560	0.0034411773
124	0x3a55e942	0.00081600633
125	0x3cd6ccf0	0.026220769
126	0x3c066988	0.008203872
127	0x3cbd1e00	0.023085594
128	0xbe250c01	-0.1611786
129	0x3e9c19ec	0.30488527
130	0x3e687892	0.22702244
131	0x3d111d1c	0.03542815
132	0x3d8a6b8f	0.067587964
133	0xbcf480e8	-0.029846624
134	0x3d7ee432	0.062229343
135	0x3ceaec27	0.02867706
136	0xbcfd48c4	-0.030918486
137	0xbd6e0226	-0.058107518
138	0x3e1937a1	0.14962627
139	0x3ec995ce	0.39372104
140	0xbe931256	-0.28724927
141	0xbde213db	-0.110389434
142	0x3e0e6978	0.1390742
143	0x3d7faf0b	0.062422793
144	0xbed9613a	-0.4245699
145	0x3e8d05ce	0.2754349
146	0x3e48043d	0.19532867
147	0xbe28b678	-0.16475856
148	0xbf3a41b1	-0.7275649
149	0x3dc14ac9	0.09438092
150	0x3e7b70c2	0.24554732
151	0x3d1dccad	0.038525272
152	0xbfdb1d8b	-1.7118391
153	0x3e575209	0.21027388
154	0x3ef541a4	0.47901642
155	0x3d803b68	0.06261331
156	0xbfa4864b	-1.2853483
157	0xbe0c02c1	-0.13672926
158	0x3e9c88e5	0.30573192
159	0x3e6999de	0.22812602
160	0xbe4fc9f2	-0.2029188
161	0x3dede590	0.11616051
162	0x3f098190	0.5371332
163	0x3ea55c33	0.32296905
164	0xbf02cf89	-0.51097924
165	0xbc709a25	-0.014685188
166	0x3e775778	0.2415446
167	0x3ecd5e02	0.40110785
168	0xbeff2fd2	-0.49841172
169	0xbdbb38a1	-0.091416605
170	0x3ea6df84	0.32592404
171	0x3e454023	0.19262747
172	0xbeab7bb7	-0.33492824
173	0x3e37fe99	0.17968215
174	0x3e4acbf7	0.19804369
175	0x3e4901ff	0.19629668
176	0x3e01fdeb	0.12694518
177	0xbe0bf450	-0.13667417
178	0x3e39168a	0.18075004
179	0x3ea24f17	0.31700966
180	0x3d052806	0.032508872
181	0x3c1b6aa3	0.009485873
182	0x3e3813d5	0.17976315
183	0x3e46e5b4	0.19423562
184	0x3ecd5d73	0.4011036
185	0x3e1f5b56	0.15562186
186	0x3e157885	0.14596756
187	0x3df64867	0.120255284
188	0x3ed47fc0	0.41503716
189	0x3d55444a	0.05206708
190	0x3e09361d	0.13399549
191	0xbdf55b1b	-0.119802676
192	0x3dcb3dad	0.09923873
193	0x3e3e9687	0.18612109
194	0xbd4cf551	-0.05003864
195	0xbe19f1e9	-0.15033688
196	0xbeb5a9dc	-0.35481155
197	0xbe42a868	-0.19009554
198	0xbdec074c	-0.11524829
199	0xbe30e813	-0.1727603
200	0xbf139a51	-0.57657343
201	0xbeb3100b	-0.34973177
202	0xbdd338f6	-0.10313599
203	0xbc574bff	-0.0131406775
204	0xbf3301a9	-0.6992441
205	0xbf0070ca	-0.501721
206	0xbee1ff66	-0.44140166
207	0x3be3b262	0.006948755
208	0xbec8b169	-0.39197853
209	0xbeab8f0b	-0.3350757
210	0xbf110535	-0.5664857
211	0xbf1fe22b	-0.6245448
212	0xbd4db1ec	-0.050218508
213	0xbcb2bf35	-0.02181969
214	0xbe7de8f4	-0.24795896
215	0xbed059e5	-0.40693584
216	0x3d667989	0.05626825
217	0xbe2186c0	-0.1577406
218	0xbe1ea515	-0.15492661
219	0xbe22dbb2	-0.1590412
220	0x3e93932e	0.28823227
221	0x3e8e3de8	0.27781606
222	0x3e017053	0.12640505
223	0x3e0cffb8	0.13769424
224	0x3f01d5b6	0.5071672
225	0x3e0c7728	0.1371733
226	0xbe31f001	-0.1737671
227	0x3e2875b5	0.16451152
228	0x3e58a8a2	0.21158078
229	0xbc14e035	-0.009086658
230	0xbdb623c8	-0.088935435
231	0x3e89eb4b	0.26937327
232	0x3dcf1265	0.1011093
233	0xbce63f9b	-0.028106501
234	0xbdb6b264	-0.08920744
235	0x3dc0adaa	0.09408124
236	0x3c51377f	0.012769579
237	0xbd1e45e2	-0.038640864
238	0xbe15c158	-0.14624536
239	0xbdacf975	-0.08446018
240	0xbde50a54	-0.111836106
241	0xbbdae7c2	-0.0066804597
242	0x3df80b29	0.12111504
243	0x3f1b6011	0.6069346
244	0xbe82e448	-0.2556479
245	0xbe2858d3	-0.16440134
246	0x3d9c1f85	0.076231994
247	0x3db10026	0.086426064
248	0x3e04932e	0.1294677
249	0x3e8e9484	0.27847683
250	0x3e84446a	0.25833446
251	0xbd1be8c1	-0.03806377
252	0x3d433241	0.047655348
253	0x3d8c122a	0.06839402
254	0x3e8aee1b	0.27134785
255	0x3d6a2c79	0.05717132

fc1.bias f4 [120]
0	0x3f029f5a	0.510244
1	0x3e7c57cf	0.24642871
2	0xbeafe10b	-0.34351382
3	0x3e2dd9a6	0.16977558
4	0xbe95d020	-0.2926035
5	0xbadbfd94	-0.0016783946
6	0x3d969f52	0.07354607
7	0x3d35c359	0.04437575
8	0xbd84285d	-0.06453011
9	0x3e5769d6	0.21036467
10	0x3d469695	0.04848345
11	0x3d9d8d4a	0.076929644
12	0x3dc1fde0	0.09472251
13	0x3dd55a95	0.10417668
14	0xbe6d2512	-0.23158672
15	0x3c576f0c	0.013149034
16	0xbe86c0c0	-0.26318932
17	0x3db6525b	0.08902427
18	0xbd3e969e	-0.04653036
19	0x3eb361f4	0.3503567
20	0xbec2ce52	-0.38048035
21	0xbcc6364e	-0.024195816
22	0x3e7a80af	0.24463151
23	0xbf2c8e75	-0.6740487
24	0x3ca4f6f0	0.02013728
25	0xbd587c41	-0.052852873
26	0x3e4db520	0.20088625
27	0x3eb87ea2	0.36034113
28	0x3e51b5f3	0.20479564
29	0x3cc2b57e	0.023768183
30	0xbcc4ecf1	-0.024038764
31	0xbd5ed4d1	-0.054402176
32	0xbd7b958e	-0.061421923
33	0x3e5a6b03	0.21329884
34	0x3bd17fd3	0.0063934117
35	0xbd568253	-0.05237038
36	0x3d2c5b53	0.04207928
37	0xbc04eec7	-0.00811357
38	0xbdaf859f	-0.08570408
39	0x3e1739d6	0.14768156
40	0xbe51a7c8	-0.2047416
41	0xbcd95cb7	-0.026533468
42	0x3df4bd4e	0.119501695
43	0x3e8c8941	0.27448466
44	0xbdb4a954	-0.08821359
45	0x3e3f3809	0.1867372
46	0xbdeba42e	-0.11505924
47	0xbd7ba225	-0.06143393
48	0x3e14f607	0.14546977
49	0x3e809e61	0.25120834
50	0x3e52c6a1	0.20583583
51	0xbedb45c6	-0.4282667
52	0x3e78b17a	0.24286452
53	0x3eb8a473	0.36062965
54	0xbeb7dd95	-0.3591124
55	0xbd99da38	-0.07512325
56	0xbf1139d5	-0.5672887
57	0x3da2f162	0.07956196
58	0x3ed7039f	0.4199495
59	0xbd2c37ac	-0.04204528
60	0xbe5e2958	-0.21695459
61	0xbe0cb807	-0.13742076
62	0xbe336d68	-0.17522204
63	0xbd1fb59c	-0.038991556
64	0xbc898905	-0.016788969
65	0x3ec8f149	0.39246586
66	0x3f1086bf	0.56455606
67	0x3e4b7c20	0.19871569
68	0x3e35191e	0.17685363
69	0x3eec217a	0.4611929
70	0x3cf4f5b0	0.02990231
71	0x3d8b6f4d	0.06808338
72	0x3bb71648	0.005587373
73	0xbd9799f5	-0.07402412
74	0x3e6e826e	0.23291942
75	0x3e12954d	0.14314766
76	0xbd1cb9a6	-0.038262986
77	0x3ae6dfbe	0.0017614288
78	0x3ea110d6	0.31458157
79	0x3ce3d857	0.02781312
80	0x3edf0186	0.4355585
81	0x3df75571	0.120768435
82	0x3e76c3f6	0.2409819
83	0x3d66a0b8	0.056305617
84	0xbd62011f	-0.05517685
85	0x3dcb936b	0.09940227
86	0xbcd784aa	-0.026308376
87	0xbeaa6271	-0.3327823
88	0x3dd01c53	0.101616524
89	0x3ec2b05e	0.38025182
90	0x3d1e7cd0	0.03869325
91	0xbdba5430	-0.09098089
92	0x3d72a8ee	0.059243135
93	0xbdbae170	-0.0912503
94	0x3e1d5467	0.15364228
95	0xbedaf8e4	-0.42768013
96	0x3e50af1f	0.20379303
97	0x3eebdb5a	0.4606579
98	0x3e8b289b	0.27179417
99	0xbe2cabf4	-0.1686247
100	0xbdb21b5c	-0.08696625
101	0xbe08d394	-0.1336196
102	0x3e3073f7	0.17231737
103	0xbe90912d	-0.2823576
104	0x3ebb6fed	0.3660883
105	0x3d88c06e	0.06677328
106	0xbd999710	-0.07499516
107	0xbe686ef5	-0.22698577
108	0x3e479a7c	0.19492525
109	0x3dce358b	0.10068806
110	0xbd70b425	-0.05876555
111	0x3db21669	0.08695681
112	0x3d754a9f	0.059885617
113	0xbc4dc903	-0.012560132
114	0x3eb6438a	0.35598403
115	0x3b4446cc	0.0029949425
116	0xbf12f5d8	-0.5740638
117	0x3dc21a77	0.09477704
118	0x3d72cfde	0.05928027
119	0xbea15bbc	-0.315153

fc2.weight f4 [84, 120]
0	0x3cb2b22f	0.02181348
1	0x3e91f9f7	0.2851102
2	0x3d0a7db9	0.033811305
3	0xbeffefdc	-0.49987686
4	0xbe9c7ca7	-0.30563852
5	0xbd70b6f6	-0.058768235
6	0xbf042158	-0.5161338
7	0xbe402f73	-0.187681
8	0x3d5582a4	0.05212654
9	0x3ea2848c	0.3174175
10	0x3da35c30	0.07976568
11	0xbe3be95f	-0.18350743
12	0xba71de4d	-0.0009226546
13	0x3e89f6d1	0.26946118
14	0x3d90c2a1	0.070683725
15	0x3b26d08f	0.00254539
16	0x3e594325	0.2121702
17	0xbec21d37	-0.37912914
18	0x3e42bf29	0.19018234
19	0x3ebf6a44	0.37385762
20	0xbc23ad52	-0.009990053
21	0xbced255b	-0.028948477
22	0xbd84c5e6	-0.06483059
23	0xbe79a9dd	-0.24381204
24	0x3b4fcec3	0.0031708933
25	0xbda08bcf	-0.078391664
26	0x3d84606a	0.06463702
27	0xbe648b29	-0.2231871
28	0xbcf8ef95	-0.03038768
29	0x3dc0ff79	0.094237275
30	0xbd8323b6	-0.06403296
31	0x3de05384	0.10953429
32	0x3c905a01	0.017621042
33	0xbd9795a0	-0.074015856
34	0x3ed039c8	0.40669084
35	0x3e772ca8	0.24138129
36	0xbd056107	-0.032563236
37	0xbc5e9f31	-0.013587759
38	0xbd1f31ad	-0.038865734
39	0x3d2329eb	0.039834898
40	0xbef4857d	-0.47758093
41	0x3d9279fc	0.07152173
42	0xbef76127	-0.4831631
43	0xbe8cc289	-0.2749217
44	0x3d07a6fd	0.033118237
45	0x3ee352c2	0.44399077
46	0xbe7420ca	-0.23840633
47	0xbd60a9fd	-0.054849613
48	0x3e757631	0.23970868
49	0xbdeb63c1	-0.11493636
50	0xbc3db972	-0.011579858
51	0xbeb8d576	-0.36100358
52	0xbdc11c02	-0.0942917
53	0xbe4cf4b4	-0.20015222
54	0xbd99bbf0	-0.07506549
55	0xbe3f7c9f	-0.18699883
56	0x3d9120cd	0.070863344
57	0xbefb739c	-0.4911164
58	0x3dce4c53	0.100731514
59	0x3d044f7a	0.032302357
60	0x3ce65f8d	0.028121734
61	0xbd6559f2	-0.05599398
62	0x3e0f0e8c	0.13970393
63	0xbe9949bb	-0.29939064
64	0xbd67d3e8	-0.056598574
65	0x3f282b48	0.6569104
66	0xbe614242	-0.21997932
67	0xbf19806f	-0.599616
68	0xbdda15c9	-0.106486864
69	0x3e00a3ca	0.1256248
70	0xbd7f5259	-0.062334392
71	0x3d0503df	0.032474395
72	0x3e41eb9a	0.18937531
73	0x3db8331c	0.08994123
74	0xbe64965c	-0.22322983
75	0xbe8ab437	-0.27090618
76	0x3e1d9ed8	0.15392625
77	0xbe042deb	-0.12908141
78	0xbce195c6	-0.027537238
79	0x3ef3e15b	0.4763287
80	0x3e021b27	0.1270567
81	0xbde85e38	-0.11346096
82	0x3e0a7c22	0.13523915
83	0xbe2c4c0d	-0.16825886
84	0xbd4dbd1b	-0.050229173
85	0x3e305f3c	0.17223829
86	0x3e0ab370	0.13545012
87	0xbecc80d6	-0.39942044
88	0x3f050768	0.51964426
89	0xbd9ad41c	-0.07559988
90	0x3e4f29c9	0.20230784
91	0xbdba4565	-0.09095267
92	0x3e46429c	0.19361347
93	0xbe74e145	-0.23914059
94	0x3eac8be3	0.33700475
95	0x3d8e305d	0.06942818
96	0x3eb9152f	0.36148974
97	0xbe0f528f	-0.13996337
98	0xbe844099	-0.25830534
99	0x3e72b6f9	0.23702611
100	0xbd8d1b6d	-0.06889997
101	0x3cb9a041	0.022659423
102	0x3e830dec	0.2559656
103	0xbe607929	-0.21921219
104	0xbf10284c	-0.5631149
105	0x3eece0e1	0.4626532
106	0xbe9da7ba	-0.30792028
107	0xbe8da7af	-0.27666995
108	0x3f18ca44	0.5968363
109	0x3cb68b10	0.022283107
110	0xbe96a035	-0.29419103
111	0xbe0d4ea7	-0.13799535
112	0xbdd86658	-0.105663955
113	0x3d06bba8	0.032893807
114	0xbe19139e	-0.1494889
115	0xbd0baab3	-0.03409834
116	0x3d2b128a	0.041765727
117	0x3da9363a	0.08262296
118	0x3cc5995c	0.024120979
119	0x3e50edea	0.20403257
120	0x3e81935a	0.25307733
121	0x3e5eaeb9	0.21746339
122	0xbd1dede7	-0.03855696
123	0x3ecdd41e	0.40200895
124	0xbf1599b2	-0.58437645
125	0x3dd07a92	0.101796284
126	0x3d9eedcd	0.07760201
127	0x3d5cc088	0.05389455
128	0xbd3aa5bb	-0.04556821
129	0x3d28004b	0.041015904
130	0x3bf4fdf9	0.007476565
131	0xbcb342cf	-0.021882443
132	0x3ed9cfa9	0.42541245
133	0x3dd32563	0.10309865
134	0x3c007b62	0.007841917
135	0x3eca8cdd	0.39560595
136	0xbee0cdb6	-0.43906945
137	0x3e747dad	0.23876067
138	0xbd66a060	-0.05630529
139	0x3c54454b	0.012955974
140	0xbe27392f	-0.16330408
141	0x3b102c1f	0.0021998954
142	0xbe5dda1c	-0.21665233
143	0x3e2d4c84	0.1692372
144	0xbecca289	-0.39967754
145	0x3d435e35	0.047697265
146	0x3ca6f992	0.020382676
147	0xbe1a3420	-0.15058947
148	0xbeb5164d	-0.35368577
149	0x3d556ced	0.052105833
150	0xbd9f2ae4	-0.077718526
151	0xbda39e40	-0.07989168
152	0xbc9441a6	-0.01809771
153	0x3dd02327	0.10162955
154	0xbd2c7c46	-0.042110704
155	0x3ef4feae	0.47850555
156	0x3e114fe0	0.14190626
157	0xbd1ca9bf	-0.03824782
158	0x3d5746c7	0.052557733
159	0x3ed1a324	0.4094478
160	0xbf1d59e9	-0.61465317
161	0xbd031b82	-0.032008655
162	0xbe8984e1	-0.2685919
163	0x3d6f680c	0.058448836
164	0x3d70c4fb	0.058781605
165	0xbe24613c	-0.16052717
166	0xbe3010d6	-0.17193922
167	0xbe343812	-0.17599514
168	0x3e148e87	0.14507495
169	0xbe469cbd	-0.19395728
170	0xbe9bf8ad	-0.30463162
171	0xbed4904f	-0.4151635
172	0xbc689411	-0.014195458
173	0xbd5a6aa6	-0.053324364
174	0x3e1c4fab	0.15264766
175	0xbda9c7b9	-0.08290047
176	0xbf003bc4	-0.50091195
177	0x3e185e46	0.14879712
178	0x3edcd23d	0.4312915
179	0x3dfb5e95	0.122738995
180	0xbeac6da4	-0.336774
181	0x3a5ffe1b	0.00085446396
182	0xbec674bc	-0.38760936
183	0x3dc1489f	0.094376795
184	0x3e23c2e8	0.1599232
185	0x3ce55524	0.0279947
186	0xbe916e02	-0.28404242
187	0x3dd47027	0.10372954
188	0xbd5c885f	-0.05384099
189	0x3d4e7d54	0.05041249
190	0x3e4a491b	0.1975445
191	0x3dd7b87f	0.10533237
192	0xbeacabab	-0.33724722
193	0x3cb8d8e4	0.022564359
194	0x3e232872	0.15933397
195	0x3dc80b81	0.09767819
196	0x3dd2c10e	0.102907285
197	0x3e1bc5f9	0.1521224
198	0xbe9fac41	-0.31186107
199	0x3daf2d95	0.08553616
200	0x3d4859ef	0.048913892
201	0x3d1024bc	0.035191283
202	0xbda325d7	-0.07966202
203	0xbeb0e13c	-0.3454684
204	0xbd8bfd8d	-0.0683547
205	0xbeb7abee	-0.3587336
206	0x3e70791c	0.234837
207	0xbf34f796	-0.70690286
208	0xbd4d8ccb	-0.0501831
209	0xbdaf67bc	-0.08564708
210	0x3eab9ce3	0.33518133
211	0x3d5a6acb	0.053324502
212	0x3e9d0c63	0.30673513
213	0x3df2749f	0.1183865
214	0x3d015bc1	0.031581644
215	0x3eb86191	0.36011937
216	0x3c4c85fc	0.012483116
217	0x3ea87cfe	0.3290786
218	0x3e458b11	0.19291331
219	0x3d98bee1	0.07458282
220	0x3d8bcb57	0.06825893
221	0xbd4806ba	-0.04883454
222	0xbd8c4ad7	-0.06850212
223	0xbd1f734c	-0.038928315
224	0xbd40e691	-0.047094885
225	0x3d97a5ec	0.07404694
226	0x3e121817	0.14267002
227	0xbdcb38d9	-0.09922952
228	0x3dbca995	0.09212033
229	0xbc926744	-0.017871507
230	0xbeb91e83	-0.3615609
231	0xbd11ac28	-0.03556457
232	0xbe2b3b13	-0.16721754
233	0x3dc40662	0.0957153
234	0xbdb99022	-0.09060694
235	0xbdb18f67	-0.0866993
236	0xbd70f91f	-0.05883133
237	0xbe5f287c	-0.21792787
238	0xbe66edd5	-0.22551663
239	0x3e048b35	0.12943728
240	0xbe79667d	-0.24355502
241	0xbe460567	-0.19337998
242	0xbe88a6bf	-0.26689717
243	0xbd15c738	-0.036566943
244	0x3be8ab9b	0.007100535
245	0xbdb1d504	-0.08683208
246	0xbde33fef	-0.11096179
247	0xbea0e03c	-0.31421077
248	0xbd256dea	-0.040388025
249	0xbe840ac5	-0.25789467
250	0xbea1937e	-0.3155784
251	0xbec7befc	-0.39012897
252	0xbdd660d2	-0.10467686
253	0xbf1951d2	-0.5989047
254	0x3dc4a87c	0.09602448
255	0xbe37ee53	-0.17962007

fc2.bias f4 [84]
0	0xbe72a2c0	-0.23694897
1	0x3d1e4e78	0.038649052
2	0x3e888bfd	0.26669303
3	0x3e5d3c46	0.21605024
4	0x3eb0c65e	0.34526342
5	0x3e3f96f6	0.18709931
6	0xbca5cc18	-0.020238921
7	0xbe1d65b4	-0.15370828
8	0x3e41a36a	0.18909994
9	0x3daaf1bb	0.08346888
10	0x3f03a45d	0.51422673
11	0x3d741270	0.059587896
12	0x3ed0e24c	0.4079765
13	0x3e9a294b	0.3010963
14	0xbe8b4ef3	-0.2720867
15	0x3e2199eb	0.15781371
16	0xbe6eec64	-0.23332363
17	0xbe21bb63	-0.15794139
18	0x3eb149c4	0.3462659
19	0x3efcbc48	0.49362397
20	0x3e63137a	0.22175398
21	0x3d3404c9	0.043949876
22	0xba9afbcc	-0.0011824309
23	0xbe34d21b	-0.17658274
24	0xbccf9433	-0.025339222
25	0xbbea3443	-0.0071473434
26	0xbe05f099	-0.13080062
27	0xbd21b974	-0.039483503
28	0xbe5689b6	-0.2095097
29	0xbddccb7d	-0.10781
30	0x3eb99ae8	0.36250997
31	0x3ef63e38	0.48094344
32	0x3f513492	0.8172084
33	0xbe14d07f	-0.1453266
34	0xbdcd25d8	-0.10016984
35	0x3ba3ec4f	0.0050025354
36	0x3d90a5a6	0.07062845
37	0x3ecf1c63	0.40451345
38	0x3ec50d18	0.38486552
39	0x3eecdae6	0.46260756
40	0x3e2e8e62	0.17046502
41	0x3f10034e	0.5625504
42	0xbc7790db	-0.01511022
43	0xbe4ce348	-0.20008576
44	0xbe2bba97	-0.16770397
45	0x3e921c54	0.28537238
46	0x3e89a509	0.26883724
47	0x3eb2c642	0.34916884
48	0xbd8ef11c	-0.06979582
49	0xbc27e7d3	-0.010248142
50	0x3f115ab6	0.5677904
51	0x3f334a3b	0.7003514
52	0xbe350b1f	-0.17680024
53	0x3e403360	0.18769598
54	0x3da965af	0.08271348
55	0xbe17f117	-0.14838062
56	0xbe3d8f1a	-0.1851162
57	0xbe523a9a	-0.20530167
58	0x3e1e9c11	0.15489222
59	0x3d216dfe	0.039411537
60	0x3ed11b89	0.4084132
61	0x3e1542dd	0.14576288
62	0xbd95dc88	-0.073174536
63	0x3e477fd9	0.19482364
64	0xbe3a75cc	-0.18208998
65	0x3de0d8ff	0.10978889
66	0xbe35808f	-0.17724822
67	0x3ef9222b	0.4865888
68	0x3de486e6	0.11158542
69	0x3dd32b71	0.1031102
70	0x3e2bdc9f	0.16783379
71	0x3c5e4e93	0.013568538
72	0x3e402e90	0.18767762
73	0xbd922176	-0.071352884
74	0xbe3c7d0e	-0.1840708
75	0x3f050289	0.51956993
76	0x3e40fb26	0.18845806
77	0xbe59237c	-0.21204942
78	0xbd5e5661	-0.054281596
79	0xbe788e22	-0.2427297
80	0xbecbc864	-0.39801323
81	0x3edc2d7c	0.43003452
82	0xbd517035	-0.0511324
83	0x3f4651d2	0.774686

fc3.weight f4 [10, 84]
0	0x3e87e51c	0.26541984
1	0x3d2a8e5c	0.04163967
2	0xbab7bc61	-0.0014017933
3	0xbcd7d02f	-0.026344387
4	0xbda4ae96	-0.08041112
5	0xbc3cf330	-0.01153259
6	0xbe1ae17a	-0.15125075
7	0x3bb30dc7	0.005464289
8	0xbdc859d6	-0.0978276
9	0xbe0cd464	-0.13752896
10	0xbe76f93b	-0.24118511
11	0xbe319d9e	-0.17345282
12	0xbf24ad10	-0.6432657
13	0xbe845239	-0.2584398
14	0xbc864d5e	-0.016394313
15	0xbd72129d	-0.059099782
16	0x3df0b9bf	0.11754178
17	0x3e8c1a08	0.2736361
18	0xbdb5e243	-0.088810466
19	0xbcb2404a	-0.021759171
20	0xbd3f5f2e	-0.04672163
21	0x3e4ea4b5	0.20180018
22	0x3c0e9e94	0.0087048
23	0xbd89ab4b	-0.06722125
24	0xbe3c7243	-0.18402962
25	0xbd1c5968	-0.038171202
26	0xbd914e1e	-0.07094978
27	0x3deaae4e	0.11459027
28	0x3e4c277d	0.19936939
29	0x3e1ef78c	0.15524119
30	0xbe6b8331	-0.22999264
31	0x3ddbd699	0.10734291
32	0xbea64b89	-0.32479504
33	0x3e065318	0.13117635
34	0xbd870d8b	-0.0659438
35	0xbf11b575	-0.56917506
36	0xbcb81b1b	-0.022473862
37	0xbe0452a0	-0.12922144
38	0xbe962672	-0.29326206
39	0xbecc571a	-0.39910203
40	0xbe03a355	-0.12855275
41	0xbee501f5	-0.44728056
42	0x3cf0b8e2	0.029385034
43	0xbe63fc7f	-0.22264288
44	0x3e4541c1	0.19263364
45	0xbe43cff8	-0.19122303
46	0xbe5cd6d9	-0.21566333
47	0x3ae8f773	0.0017773941
48	0x3d2bcade	0.041941516
49	0xbc929c7c	-0.017896883
50	0xbea0122e	-0.3126387
51	0xbea3f2ea	-0.32021266
52	0xbcb62d15	-0.022238294
53	0xbdf8ff9b	-0.12158128
54	0xbd8142ab	-0.06311544
55	0xbd7ec75d	-0.062201846
56	0xbc8cb210	-0.01717475
57	0x3cb30fd8	0.02185814
58	0xbe7f6d22	-0.24943975
59	0xbecd472b	-0.4009336
60	0xbe87cd2a	-0.26523715
61	0xbe97133f	-0.2950687
62	0x3d6fddd2	0.058561154
63	0xbe8ee81f	-0.2791147
64	0x3e3e0e50	0.18560147
65	0xbef28d36	-0.4737336
66	0xbc540c48	-0.012942381
67	0x3d91a3c3	0.07111313
68	0x3dc6acdd	0.0970094
69	0x3e36b676	0.17843041
70	0xbd8b4d37	-0.06801837
71	0x3e438a9d	0.19095846
72	0xbdc5a9fd	-0.09651563
73	0xbbc085d9	-0.005875331
74	0xbe1f4d2e	-0.15556785
75	0xbdd5ea16	-0.10445039
76	0xbe8dd354	-0.27700293
77	0xbd445bd2	-0.04793913
78	0x3e4bd9ff	0.19907378
79	0x3c90ced3	0.017676746
80	0x3e06baa4	0.13157135
81	0xbe4009ad	-0.18753691
82	0xbe42c50a	-0.19020477
83	0xbe6b2fbc	-0.22967428
84	0x3d2047c1	0.03913093
85	0xbe3196d8	-0.17342699
86	0xbd05505d	-0.032547344
87	0xbbafe8a7	-0.0053683105
88	0x3c93159a	0.017954636
89	0xbeb4c95b	-0.35309872
90	0xbdddea9f	-0.10835766
91	0xbd855191	-0.06509698
92	0x3dca381a	0.09873982
93	0x3b6324cc	0.0034659384
94	0xbe6f8e1b	-0.23394053
95	0x3e02e944	0.12784296
96	0x3e5c4b77	0.21513163
97	0xbd953032	-0.07284583
98	0x3e512887	0.20425616
99	0xbec06cf0	-0.37583113
100	0x3e012371	0.12611176
101	0xbe073476	-0.13203606
102	0xbd4cf0a4	-0.05003418
103	0xbe21956f	-0.1577966
104	0x3dcc779f	0.099837534
105	0xbe9716ed	-0.29509678
106	0xbde913ec	-0.11380753
107	0xbe247849	-0.1606151
108	0xbe092a2d	-0.13394995
109	0x3daa30b8	0.083100736
110	0xbe0a7cee	-0.1352422
111	0xbde59513	-0.11210074
112	0xbe52f17e	-0.20599934
113	0x3e349aae	0.1763713
114	0xbe527961	-0.20554115
115	0xbdc78e75	-0.097439684
116	0xbe900c76	-0.28134507
117	0x3bf6d699	0.0075329063
118	0xbf028ed1	-0.5099917
119	0xbf136e86	-0.5759052
120	0xbd287bff	-0.041133877
121	0xbd4c29d5	-0.04984458
122	0xbdcaf6bc	-0.09910342
123	0x3f0c1e2e	0.5473355
124	0x3e9549cd	0.29157868
125	0x3e129ee7	0.14318429
126	0x3e4602f2	0.19337061
127	0x3cd67d90	0.02618292
128	0x3dba17af	0.090865485
129	0xbc8e77d5	-0.017391125
130	0xbe93cff6	-0.288696
131	0x3da5ae89	0.080899306
132	0x3d1ca96a	0.038247503
133	0xbd0ab811	-0.033866946
134	0xbebd8122	-0.37012583
135	0xbd2d10c9	-0.042252336
136	0xbee2ab23	-0.44271192
137	0x3e2f4e2d	0.17119665
138	0x3e0f09da	0.13968602
139	0xbc929341	-0.017892482
140	0xbe96a1f7	-0.29420444
141	0x3e27f6d8	0.16402757
142	0x3dfbfc50	0.12303984
143	0xbe92eb24	-0.28695023
144	0x3d07acf7	0.033123937
145	0x3cf8197c	0.03028559
146	0xbe56de83	-0.20983319
147	0xbe567f68	-0.20947039
148	0x3e044ea9	0.12920631
149	0x3d13d75f	0.036094066
150	0xbf0fea0f	-0.5621652
151	0x3e192fcc	0.1495964
152	0xbeffcecb	-0.49962458
153	0xbe087ca2	-0.13328794
154	0xbe85e065	-0.26147762
155	0xbf260c53	-0.64862555
156	0x3c69bf26	0.014266765
157	0x3e74e0f4	0.23913938
158	0x3e32c47e	0.17457768
159	0xbcdd5789	-0.02701928
160	0xbedd5c5b	-0.43234524
161	0xbe88c62c	-0.26713693
162	0xbf232d60	-0.6374111
163	0x3df10d6d	0.11770139
164	0xbe4357eb	-0.19076507
165	0x3e9d81f8	0.3076322
166	0x3e35f365	0.17768629
167	0xbe7a216d	-0.24426813
168	0xbe3b4bac	-0.18290585
169	0xbe940b29	-0.28914765
170	0x3d970f20	0.07375932
171	0xbe2a293f	-0.16617297
172	0xbd939570	-0.07206237
173	0xbdf0fb86	-0.11766724
174	0x3c90f7cd	0.017696286
175	0xbd292bf3	-0.04130168
176	0x3e5a25f7	0.21303545
177	0xbda753d5	-0.081702866
178	0xbe6102fb	-0.21973793
179	0x3d33a89b	0.043861967
180	0xbe10a1da	-0.14124241
181	0x3e6d1acf	0.23154758
182	0xbed27600	-0.41105652
183	0xbe025236	-0.12726673
184	0x3e6ca35f	0.23109196
185	0xbcbae1b2	-0.022812698
186	0x3e62cfc7	0.22149573
187	0x3debdd7d	0.11516855
188	0xbdc4b84b	-0.096054636
189	0xbdea79f1	-0.1144904
190	0x3cbfb117	0.023399873
191	0xbe7786c3	-0.24172501
192	0x3dc4ba39	0.09605832
193	0x3e8bde87	0.27318212
194	0xbd39db38	-0.04537508
195	0xbdbee6de	-0.09321378
196	0x3e63adf8	0.22234333
197	0x3dd9054f	0.10596716
198	0x3dc9f2e4	0.09860781
199	0xbe3cbe99	-0.18432082
200	0x3d30ff69	0.043212328
201	0xbe02d4ee	-0.12776539
202	0x3e0ba5e6	0.13637504
203	0xbe4eeeb0	-0.2020824
204	0x3e0fdce7	0.14049111
205	0x3e21221d	0.1573567
206	0x3e183d21	0.14867069
207	0x3da57873	0.080796145
208	0xbe4e5d2d	-0.20152731
209	0xbdd9310e	-0.106050596
210	0xbed26324	-0.41091263
211	0x3e076166	0.13220748
212	0x3e10bc51	0.14134337
213	0xbd295b5a	-0.041346885
214	0x3d9a2e65	0.0752838
215	0x3d95cf28	0.073149025
216	0x3d2a03b5	0.04150744
217	0xbe74e69b	-0.23916094
218	0xbe910efe	-0.2833175
219	0xbe8ef2c4	-0.2791959
220	0x3dc77e27	0.097408585
221	0x3d679770	0.056540906
222	0xbd3dfab8	-0.046381682
223	0xbe3540b5	-0.17700465
224	0xbe5d9ff9	-0.21643056
225	0x3e57c7b8	0.2107228
226	0xbe3d66c2	-0.1849623
227	0xbe6c3cab	-0.23070018
228	0xbe205e9e	-0.15661094
229	0xbea2f854	-0.31830084
230	0x3ded8326	0.1159728
231	0x3e1bbd70	0.15208983
232	0xbe990a7b	-0.29890808
233	0x3b154001	0.0022773745
234	0x3e2f0b92	0.17094257
235	0xbac21e5c	-0.0014810073
236	0xbe92ec15	-0.2869574
237	0xbe2e26b0	-0.17006946
238	0x3db4cb86	0.088278815
239	0x3c824f59	0.015906977
240	0x3c092888	0.00837148
241	0x3d247d81	0.040158752
242	0xbe97ab96	-0.29623097
243	0xbe92eccf	-0.28696296
244	0x3ce9c151	0.028534563
245	0x3d347799	0.04405937
246	0x3c3f81e4	0.011688683
247	0x3d49ad44	0.049237505
248	0x3c0f3f62	0.008743139
249	0x3e301013	0.17193632
250	0xbdd38a24	-0.103290826
251	0xbe121bf7	-0.1426848
252	0xbe9332d4	-0.28749716
253	0xbe7570eb	-0.23968856
254	0x3dbea031	0.09307898
255	0x3e9f37e0	0.31097317

fc3.bias f4 [10]
0	0xbe956d0a	-0.29184753
1	0xbd002cb7	-0.031292643
2	0xbd6aecc3	-0.0573547
3	0x3e7622ee	0.24036762
4	0xbd931410	-0.07181561
5	0x3f0a8409	0.5410772
6	0xbf302df9	-0.6882015
7	0x3e262ccb	0.16228025
8	0x3ea7e7fc	0.32794178
9	0xbdc6accf	-0.097009294
